_________________________________________________________________
Layer (type)                 Output Shape              Param #   
=================================================================
input_1 (InputLayer)         (None, 600, 800, 3)       0         
_________________________________________________________________
lambda_1 (Lambda)            (None, 112, 112, 3)       0         
_________________________________________________________________
lambda_2 (Lambda)            (None, 112, 112, 3)       0         
_________________________________________________________________
conv2d_1 (Conv2D)            (None, 110, 110, 8)       224       
_________________________________________________________________
max_pooling2d_1 (MaxPooling2 (None, 55, 55, 8)         0         
_________________________________________________________________
dropout_1 (Dropout)          (None, 55, 55, 8)         0         
_________________________________________________________________
conv2d_2 (Conv2D)            (None, 53, 53, 16)        1168      
_________________________________________________________________
max_pooling2d_2 (MaxPooling2 (None, 26, 26, 16)        0         
_________________________________________________________________
dropout_2 (Dropout)          (None, 26, 26, 16)        0         
_________________________________________________________________
conv2d_3 (Conv2D)            (None, 24, 24, 32)        4640      
_________________________________________________________________
max_pooling2d_3 (MaxPooling2 (None, 12, 12, 32)        0         
_________________________________________________________________
conv2d_4 (Conv2D)            (None, 10, 10, 64)        18496     
_________________________________________________________________
dropout_3 (Dropout)          (None, 10, 10, 64)        0         
_________________________________________________________________
flatten_1 (Flatten)          (None, 6400)              0         
_________________________________________________________________
dense_1 (Dense)              (None, 160)               1024160   
_________________________________________________________________
dense_2 (Dense)              (None, 160)               25760     
_________________________________________________________________
dense_3 (Dense)              (None, 4)                 644       
=================================================================
Total params: 1,075,092
Trainable params: 1,075,092
Non-trainable params: 0
_________________________________________________________________
