_________________________________________________________________
Layer (type)                 Output Shape              Param #   
=================================================================
input_1 (InputLayer)         (None, 600, 800, 3)       0         
_________________________________________________________________
lambda_1 (Lambda)            (None, 224, 224, 3)       0         
_________________________________________________________________
lambda_2 (Lambda)            (None, 224, 224, 3)       0         
_________________________________________________________________
conv2d_1 (Conv2D)            (None, 214, 214, 16)      5824      
_________________________________________________________________
max_pooling2d_1 (MaxPooling2 (None, 107, 107, 16)      0         
_________________________________________________________________
dropout_1 (Dropout)          (None, 107, 107, 16)      0         
_________________________________________________________________
conv2d_2 (Conv2D)            (None, 103, 103, 32)      12832     
_________________________________________________________________
max_pooling2d_2 (MaxPooling2 (None, 51, 51, 32)        0         
_________________________________________________________________
dropout_2 (Dropout)          (None, 51, 51, 32)        0         
_________________________________________________________________
conv2d_3 (Conv2D)            (None, 49, 49, 64)        18496     
_________________________________________________________________
max_pooling2d_3 (MaxPooling2 (None, 24, 24, 64)        0         
_________________________________________________________________
conv2d_4 (Conv2D)            (None, 22, 22, 64)        36928     
_________________________________________________________________
max_pooling2d_4 (MaxPooling2 (None, 11, 11, 64)        0         
_________________________________________________________________
dropout_3 (Dropout)          (None, 11, 11, 64)        0         
_________________________________________________________________
dense_1 (Dense)              (None, 11, 11, 200)       13000     
_________________________________________________________________
dense_2 (Dense)              (None, 11, 11, 160)       32160     
_________________________________________________________________
flatten_1 (Flatten)          (None, 19360)             0         
_________________________________________________________________
dense_3 (Dense)              (None, 4)                 77444     
=================================================================
Total params: 196,684
Trainable params: 196,684
Non-trainable params: 0
_________________________________________________________________
