_________________________________________________________________
Layer (type)                 Output Shape              Param #   
=================================================================
input_1 (InputLayer)         (None, 600, 800, 3)       0         
_________________________________________________________________
lambda_1 (Lambda)            (None, 96, 96, 3)         0         
_________________________________________________________________
lambda_2 (Lambda)            (None, 96, 96, 3)         0         
_________________________________________________________________
conv2d_1 (Conv2D)            (None, 94, 94, 6)         168       
_________________________________________________________________
max_pooling2d_1 (MaxPooling2 (None, 47, 47, 6)         0         
_________________________________________________________________
dropout_1 (Dropout)          (None, 47, 47, 6)         0         
_________________________________________________________________
conv2d_2 (Conv2D)            (None, 45, 45, 8)         440       
_________________________________________________________________
max_pooling2d_2 (MaxPooling2 (None, 22, 22, 8)         0         
_________________________________________________________________
dropout_2 (Dropout)          (None, 22, 22, 8)         0         
_________________________________________________________________
conv2d_3 (Conv2D)            (None, 12, 12, 32)        31008     
_________________________________________________________________
max_pooling2d_3 (MaxPooling2 (None, 6, 6, 32)          0         
_________________________________________________________________
conv2d_4 (Conv2D)            (None, 4, 4, 64)          18496     
_________________________________________________________________
max_pooling2d_4 (MaxPooling2 (None, 2, 2, 64)          0         
_________________________________________________________________
dropout_3 (Dropout)          (None, 2, 2, 64)          0         
_________________________________________________________________
dense_1 (Dense)              (None, 2, 2, 128)         8320      
_________________________________________________________________
dropout_4 (Dropout)          (None, 2, 2, 128)         0         
_________________________________________________________________
flatten_1 (Flatten)          (None, 512)               0         
_________________________________________________________________
dense_2 (Dense)              (None, 4)                 2052      
=================================================================
Total params: 60,484
Trainable params: 60,484
Non-trainable params: 0
__________________________________________
12/12 [==============================] - 5s - loss: 0.0414 - acc: 0.9564 - val_loss: 0.0473 - val_acc: 0.9429
_______________________
