_________________________________________________________________
Layer (type)                 Output Shape              Param #   
=================================================================
input_1 (InputLayer)         (None, 600, 800, 3)       0         
_________________________________________________________________
lambda_1 (Lambda)            (None, 96, 96, 3)         0         
_________________________________________________________________
lambda_2 (Lambda)            (None, 96, 96, 3)         0         
_________________________________________________________________
conv2d_1 (Conv2D)            (None, 94, 94, 8)         224       
_________________________________________________________________
max_pooling2d_1 (MaxPooling2 (None, 47, 47, 8)         0         
_________________________________________________________________
dropout_1 (Dropout)          (None, 47, 47, 8)         0         
_________________________________________________________________
conv2d_2 (Conv2D)            (None, 45, 45, 16)        1168      
_________________________________________________________________
max_pooling2d_2 (MaxPooling2 (None, 22, 22, 16)        0         
_________________________________________________________________
dropout_2 (Dropout)          (None, 22, 22, 16)        0         
_________________________________________________________________
conv2d_3 (Conv2D)            (None, 20, 20, 32)        4640      
_________________________________________________________________
max_pooling2d_3 (MaxPooling2 (None, 10, 10, 32)        0         
_________________________________________________________________
dropout_3 (Dropout)          (None, 10, 10, 32)        0         
_________________________________________________________________
conv2d_4 (Conv2D)            (None, 8, 8, 64)          18496     
_________________________________________________________________
max_pooling2d_4 (MaxPooling2 (None, 4, 4, 64)          0         
_________________________________________________________________
dropout_4 (Dropout)          (None, 4, 4, 64)          0         
_________________________________________________________________
dense_1 (Dense)              (None, 4, 4, 128)         8320      
_________________________________________________________________
flatten_1 (Flatten)          (None, 2048)              0         
_________________________________________________________________
dense_2 (Dense)              (None, 4)                 8196      
=================================================================
Total params: 41,044
Trainable params: 41,044
Non-trainable params: 0
_________________________________________________________________
Epoch 60/60
11/12 [==========================>...] - ETA: 0s - loss: 0.0178 - acc: 1.0000Epoch 00059: val_acc did not improve
12/12 [==============================] - 6s - loss: 0.0176 - acc: 0.9974 - val_loss: 0.0254 - val_acc: 0.9857
…
