_________________________________________________________________
Layer (type)                 Output Shape              Param #   
=================================================================
input_1 (InputLayer)         (None, 600, 800, 3)       0         
_________________________________________________________________
lambda_1 (Lambda)            (None, 224, 224, 3)       0         
_________________________________________________________________
lambda_2 (Lambda)            (None, 224, 224, 3)       0         
_________________________________________________________________
conv2d_1 (Conv2D)            (None, 222, 222, 8)       224       
_________________________________________________________________
max_pooling2d_1 (MaxPooling2 (None, 111, 111, 8)       0         
_________________________________________________________________
dropout_1 (Dropout)          (None, 111, 111, 8)       0         
_________________________________________________________________
conv2d_2 (Conv2D)            (None, 109, 109, 16)      1168      
_________________________________________________________________
max_pooling2d_2 (MaxPooling2 (None, 54, 54, 16)        0         
_________________________________________________________________
dropout_2 (Dropout)          (None, 54, 54, 16)        0         
_________________________________________________________________
conv2d_3 (Conv2D)            (None, 52, 52, 32)        4640      
_________________________________________________________________
max_pooling2d_3 (MaxPooling2 (None, 26, 26, 32)        0         
_________________________________________________________________
conv2d_4 (Conv2D)            (None, 24, 24, 64)        18496     
_________________________________________________________________
dropout_3 (Dropout)          (None, 24, 24, 64)        0         
_________________________________________________________________
flatten_1 (Flatten)          (None, 36864)             0         
_________________________________________________________________
dense_1 (Dense)              (None, 160)               5898400   
_________________________________________________________________
dense_2 (Dense)              (None, 160)               25760     
_________________________________________________________________
dense_3 (Dense)              (None, 4)                 644       
=================================================================
Total params: 5,949,332
Trainable params: 5,949,332
Non-trainable params: 0
_________________________________________________________________
12/12 [==============================] - 22s - loss: 0.1226 - acc: 0.6735 - val_loss: 0.1491 - val_acc: 0.6857

