1. 

Layer (type)                 Output Shape              Param #   
=================================================================
input_1 (InputLayer)         (None, 600, 800, 3)       0         
_________________________________________________________________
lambda_1 (Lambda)            (None, 160, 160, 3)       0         
_________________________________________________________________
lambda_2 (Lambda)            (None, 160, 160, 3)       0         
_________________________________________________________________
vgg16 (Model)                multiple                  14714688  
_________________________________________________________________
flatten_1 (Flatten)          (None, 12800)             0         
_________________________________________________________________
dense_1 (Dense)              (None, 4)                 51204     
=================================================================
Total params: 14,765,892
Trainable params: 14,765,892
Non-trainable params: 0
_________________________________________________________________
Training started
Epoch 1/1
 2/23 [=>............................] - ETA: 2296s - loss: 31.7126 - acc: 0.218 3/23 [==>...........................] - ETA: 2231s - loss: 21.2105 - acc: 0.
…
23/23 [==============================] - 1050s - loss: 0.2197 - acc: 0.2640 - val_loss: 0.1940 - val_acc: 0.3312
Epoch 3/5
23/23 [==============================] - 1056s - loss: 0.1959 - acc: 0.3518 - val_loss: 0.1831 - val_acc: 0.3500
Epoch 4/5
23/23 [==============================] - 1450s - loss: 0.1816 - acc: 0.3821 - val_loss: 0.1723 - val_acc: 0.3567
Epoch 5/5
23/23 [==============================] - 1063s - loss: 0.1865 - acc: 0.3508 - val_loss: 0.1753 - val_acc: 0.3438
Model saved successfully

3,

Layer (type)                 Output Shape              Param #   
=================================================================
input_1 (InputLayer)         (None, 600, 800, 3)       0         
_________________________________________________________________
lambda_1 (Lambda)            (None, 160, 160, 3)       0         
_________________________________________________________________
lambda_2 (Lambda)            (None, 160, 160, 3)       0         
_________________________________________________________________
conv2d_1 (Conv2D)            (None, 158, 158, 32)      896       
_________________________________________________________________
max_pooling2d_1 (MaxPooling2 (None, 79, 79, 32)        0         
_________________________________________________________________
conv2d_2 (Conv2D)            (None, 77, 77, 64)        18496     
_________________________________________________________________
max_pooling2d_2 (MaxPooling2 (None, 38, 38, 64)        0         
_________________________________________________________________
dropout_1 (Dropout)          (None, 38, 38, 64)        0         
_________________________________________________________________
flatten_1 (Flatten)          (None, 92416)             0         
_________________________________________________________________
dense_1 (Dense)              (None, 4)                 369668    
=================================================================
Total params: 389,060
Trainable params: 389,060
Non-trainable params: 0
_________________________________________________________________
Training started
Epoch 1/5
2020-01-29 00:16:17.383259: W tensorflow/core/platform/cpu_feature_guard.cc:45] The TensorFlow library wasn't compiled to use SSE4.1 instructions, but these are available on your machine and could speed up CPU computations.
…
13/13 [==============================] - 24s - loss: 0.1463 - acc: 0.6353 - val_loss: 0.1538 - val_acc: 0.5733
Epoch 4/5
13/13 [==============================] - 23s - loss: 0.1037 - acc: 0.7924 - val_loss: 0.1082 - val_acc: 0.7200
Epoch 5/5
13/13 [==============================] - 25s - loss: 0.0746 - acc: 0.8431 - val_loss: 0.1025 - val_acc: 0.7708
Model saved successfully
student@udacity:~/CarND-Capstone/train_nn$ python train.py
Using TensorFlow backend.

4,

_________________________________________________________________
Layer (type)                 Output Shape              Param #   
=================================================================
input_1 (InputLayer)         (None, 600, 800, 3)       0         
_________________________________________________________________
lambda_1 (Lambda)            (None, 160, 160, 3)       0         
_________________________________________________________________
lambda_2 (Lambda)            (None, 160, 160, 3)       0         
_________________________________________________________________
conv2d_1 (Conv2D)            (None, 158, 158, 16)      448       
_________________________________________________________________
max_pooling2d_1 (MaxPooling2 (None, 79, 79, 16)        0         
_________________________________________________________________
conv2d_2 (Conv2D)            (None, 77, 77, 32)        4640      
_________________________________________________________________
max_pooling2d_2 (MaxPooling2 (None, 38, 38, 32)        0         
_________________________________________________________________
conv2d_3 (Conv2D)            (None, 36, 36, 64)        18496     
_________________________________________________________________
max_pooling2d_3 (MaxPooling2 (None, 18, 18, 64)        0         
_________________________________________________________________
dropout_1 (Dropout)          (None, 18, 18, 64)        0         
_________________________________________________________________
flatten_1 (Flatten)          (None, 20736)             0         
_________________________________________________________________
dense_1 (Dense)              (None, 4)                 82948     
=================================================================
Total params: 106,532
Trainable params: 106,532
Non-trainable params: 0
_________________________________________________________________
Training started
Epoch 1/5
2020-01-29 00:20:02.387018: W tensorflow/core/platform/cpu_feature_guard.cc:45] The TensorFlow library wasn't compiled to use SSE4.1 instructions, but these are available on your machine and could speed up CPU computations.
…
13/13 [==============================] - 17s - loss: 0.1921 - acc: 0.2956 - val_loss: 0.1755 - val_acc: 0.4933
Epoch 3/5
13/13 [==============================] - 16s - loss: 0.1717 - acc: 0.4793 - val_loss: 0.1717 - val_acc: 0.5067
Epoch 4/5
13/13 [==============================] - 16s - loss: 0.1428 - acc: 0.6934 - val_loss: 0.1440 - val_acc: 0.6667
Epoch 5/5
13/13 [==============================] - 15s - loss: 0.1155 - acc: 0.7634 - val_loss: 0.1274 - val_acc: 0.6533
Model saved successfully

5,

Layer (type)                 Output Shape              Param #   
=================================================================
input_1 (InputLayer)         (None, 600, 800, 3)       0         
_________________________________________________________________
lambda_1 (Lambda)            (None, 160, 160, 3)       0         
_________________________________________________________________
lambda_2 (Lambda)            (None, 160, 160, 3)       0         
_________________________________________________________________
conv2d_1 (Conv2D)            (None, 158, 158, 16)      448       
_________________________________________________________________
dropout_1 (Dropout)          (None, 158, 158, 16)      0         
_________________________________________________________________
conv2d_2 (Conv2D)            (None, 156, 156, 32)      4640      
_________________________________________________________________
max_pooling2d_1 (MaxPooling2 (None, 78, 78, 32)        0         
_________________________________________________________________
conv2d_3 (Conv2D)            (None, 76, 76, 64)        18496     
_________________________________________________________________
max_pooling2d_2 (MaxPooling2 (None, 38, 38, 64)        0         
_________________________________________________________________
dropout_2 (Dropout)          (None, 38, 38, 64)        0         
_________________________________________________________________
flatten_1 (Flatten)          (None, 92416)             0         
_________________________________________________________________
dense_1 (Dense)              (None, 4)                 369668    
=================================================================
Total params: 393,252
Trainable params: 393,252
Non-trainable params: 0
_________________________________________________________________
Training started
Epoch 1/5
2020-01-29 00:23:35.797120: W tensorflow/core/platform/cpu_feature_guard.cc:45] The TensorFlow library wasn't compiled to use SSE4.1 instructions, but these are available on your machine and could speed up CPU computations.
…
13/13 [==============================] - 38s - loss: 0.2065 - acc: 0.2118 - val_loss: 0.2060 - val_acc: 0.2933
Epoch 3/5
13/13 [==============================] - 39s - loss: 0.1898 - acc: 0.3632 - val_loss: 0.1972 - val_acc: 0.3333
Epoch 4/5
13/13 [==============================] - 39s - loss: 0.1841 - acc: 0.3430 - val_loss: 0.1892 - val_acc: 0.3867
Epoch 5/5
13/13 [==============================] - 42s - loss: 0.1798 - acc: 0.4108 - val_loss: 0.1840 - val_acc: 0.4933

6.

Layer (type)                 Output Shape              Param #   
=================================================================
input_1 (InputLayer)         (None, 600, 800, 3)       0         
_________________________________________________________________
lambda_1 (Lambda)            (None, 160, 160, 3)       0         
_________________________________________________________________
lambda_2 (Lambda)            (None, 160, 160, 3)       0         
_________________________________________________________________
conv2d_1 (Conv2D)            (None, 158, 158, 16)      448       
_________________________________________________________________
dropout_1 (Dropout)          (None, 158, 158, 16)      0         
_________________________________________________________________
flatten_1 (Flatten)          (None, 399424)            0         
_________________________________________________________________
dense_1 (Dense)              (None, 4)                 1597700   
=================================================================
Total params: 1,598,148
Trainable params: 1,598,148
Non-trainable params: 0
_________________________________________________________________
Training started
Epoch 1/10
2020-01-29 15:39:48.443759: W tensorflow/core/platform/cpu_feature_guard.cc:45] The TensorFlow library wasn't compiled to use SSE4.1 instructions, but these are available on your machine and could speed up CPU computations.
…
13/13 [==============================] - 11s - loss: 1.8041 - acc: 0.4422 - val_loss: 0.9356 - val_acc: 0.4667
Epoch 8/10
13/13 [==============================] - 11s - loss: 0.7606 - acc: 0.5822 - val_loss: 0.4951 - val_acc: 0.4933
Epoch 9/10
13/13 [==============================] - 12s - loss: 0.7251 - acc: 0.5798 - val_loss: 0.8177 - val_acc: 0.5333
Epoch 10/10
13/13 [==============================] - 12s - loss: 0.7555 - acc: 0.5894 - val_loss: 0.6068 - val_acc: 0.5467
Model saved successfully

7.

Layer (type)                 Output Shape              Param #   
=================================================================
input_1 (InputLayer)         (None, 600, 800, 3)       0         
_________________________________________________________________
lambda_1 (Lambda)            (None, 160, 160, 3)       0         
_________________________________________________________________
lambda_2 (Lambda)            (None, 160, 160, 3)       0         
_________________________________________________________________
conv2d_1 (Conv2D)            (None, 158, 158, 16)      448       
_________________________________________________________________
flatten_1 (Flatten)          (None, 399424)            0         
_________________________________________________________________
dense_1 (Dense)              (None, 4)                 1597700   
=================================================================
Total params: 1,598,148
Trainable params: 1,598,148
Non-trainable params: 0
_________________________________________________________________
Training started
Epoch 1/10
2020-01-29 16:23:23.828962: W tensorflow/core/platform/cpu_feature_guard.cc:45] The TensorFlow library wasn't compiled to use SSE4.1 instructions, but these are available on your machine and could speed up CPU computations.
…
12/12 [==============================] - 17s - loss: 0.5112 - acc: 0.8554 - val_loss: 0.2136 - val_acc: 0.6429
Epoch 8/10
12/12 [==============================] - 17s - loss: 0.3733 - acc: 0.8788 - val_loss: 0.3542 - val_acc: 0.6429
Epoch 9/10
12/12 [==============================] - 17s - loss: 0.4181 - acc: 0.9113 - val_loss: 0.2950 - val_acc: 0.6857
Epoch 10/10
12/12 [==============================] - 17s - loss: 0.3427 - acc: 0.9426 - val_loss: 0.1670 - val_acc: 0.7143
Model saved successfully

8.

yer (type)                 Output Shape              Param #   
=================================================================
input_1 (InputLayer)         (None, 600, 800, 3)       0         
_________________________________________________________________
lambda_1 (Lambda)            (None, 96, 96, 3)         0         
_________________________________________________________________
lambda_2 (Lambda)            (None, 96, 96, 3)         0         
_________________________________________________________________
conv2d_1 (Conv2D)            (None, 94, 94, 8)         224       
_________________________________________________________________
max_pooling2d_1 (MaxPooling2 (None, 47, 47, 8)         0         
_________________________________________________________________
conv2d_2 (Conv2D)            (None, 45, 45, 16)        1168      
_________________________________________________________________
max_pooling2d_2 (MaxPooling2 (None, 22, 22, 16)        0         
_________________________________________________________________
dropout_1 (Dropout)          (None, 22, 22, 16)        0         
_________________________________________________________________
conv2d_3 (Conv2D)            (None, 20, 20, 32)        4640      
_________________________________________________________________
max_pooling2d_3 (MaxPooling2 (None, 10, 10, 32)        0         
_________________________________________________________________
conv2d_4 (Conv2D)            (None, 8, 8, 64)          18496     
_________________________________________________________________
max_pooling2d_4 (MaxPooling2 (None, 4, 4, 64)          0         
_________________________________________________________________
dropout_2 (Dropout)          (None, 4, 4, 64)          0         
_________________________________________________________________
dense_1 (Dense)              (None, 4, 4, 128)         8320      
_________________________________________________________________
dropout_3 (Dropout)          (None, 4, 4, 128)         0         
_________________________________________________________________
flatten_1 (Flatten)          (None, 2048)              0         
_________________________________________________________________
dense_2 (Dense)              (None, 4)                 8196      
=================================================================
Total params: 41,044
Trainable params: 41,044
Non-trainable params: 0
_________________________________________________________________
Training started
Epoch 1/10
2020-01-29 17:05:35.420901: W tensorflow/core/platform/cpu_feature_guard.cc:45] The TensorFlow library wasn't compiled to use SSE4.1 instructions, but these are available on your machine and could speed up CPU computations.
…
12/12 [==============================] - 5s - loss: 0.0382 - acc: 0.9531 - val_loss: 0.0369 - val_acc: 0.9714
Epoch 28/30
12/12 [==============================] - 5s - loss: 0.0351 - acc: 0.9661 - val_loss: 0.0368 - val_acc: 0.9571
Epoch 29/30
12/12 [==============================] - 5s - loss: 0.0355 - acc: 0.9713 - val_loss: 0.0337 - val_acc: 0.9857
Epoch 30/30
12/12 [==============================] - 5s - loss: 0.0322 - acc: 0.9791 - val_loss: 0.0337 - val_acc: 0.9857
Model saved successfully


10,

Layer (type)                 Output Shape              Param #   
=================================================================
input_1 (InputLayer)         (None, 600, 800, 3)       0         
_________________________________________________________________
lambda_1 (Lambda)            (None, 96, 96, 3)         0         
_________________________________________________________________
lambda_2 (Lambda)            (None, 96, 96, 3)         0         
_________________________________________________________________
conv2d_1 (Conv2D)            (None, 94, 94, 8)         224       
_________________________________________________________________
max_pooling2d_1 (MaxPooling2 (None, 47, 47, 8)         0         
_________________________________________________________________
conv2d_2 (Conv2D)            (None, 45, 45, 16)        1168      
_________________________________________________________________
dropout_1 (Dropout)          (None, 45, 45, 16)        0         
_________________________________________________________________
flatten_1 (Flatten)          (None, 32400)             0         
_________________________________________________________________
dense_1 (Dense)              (None, 4)                 129604    
=================================================================
Total params: 130,996
Trainable params: 130,996
Non-trainable params: 0
_________________________________________________________________
Training started
Epoch 1/30
2020-01-31 00:12:48.642904: W tensorflow/core/platform/cpu_feature_guard.cc:45] The TensorFlow library wasn't compiled to use SSE4.1 instructions, but these are available on your machine and could speed up CPU computations.
…
12/12 [==============================] - 5s - loss: 0.0075 - acc: 1.0000 - val_loss: 0.1091 - val_acc: 0.7286
Epoch 28/30
12/12 [==============================] - 6s - loss: 0.0076 - acc: 1.0000 - val_loss: 0.1080 - val_acc: 0.7286
Epoch 29/30
12/12 [==============================] - 5s - loss: 0.0074 - acc: 1.0000 - val_loss: 0.1051 - val_acc: 0.7286
Epoch 30/30
12/12 [==============================] - 5s - loss: 0.0069 - acc: 1.0000 - val_loss: 0.1053 - val_acc: 0.7286
Model saved successfully

12,

Layer (type)                 Output Shape              Param #   
=================================================================
input_1 (InputLayer)         (None, 600, 800, 3)       0         
_________________________________________________________________
lambda_1 (Lambda)            (None, 96, 96, 3)         0         
_________________________________________________________________
lambda_2 (Lambda)            (None, 96, 96, 3)         0         
_________________________________________________________________
conv2d_1 (Conv2D)            (None, 94, 94, 8)         224       
_________________________________________________________________
conv2d_2 (Conv2D)            (None, 92, 92, 16)        1168      
_________________________________________________________________
dropout_1 (Dropout)          (None, 92, 92, 16)        0         
_________________________________________________________________
flatten_1 (Flatten)          (None, 135424)            0         
_________________________________________________________________
dense_1 (Dense)              (None, 4)                 541700    
=================================================================
Total params: 543,092
Trainable params: 543,092
Non-trainable params: 0
_________________________________________________________________
Training started
Epoch 1/30
2020-01-31 00:16:02.148450: W tensorflow/core/platform/cpu_feature_guard.cc:45] The TensorFlow library wasn't compiled to use SSE4.1 instructions, but these are available on your machine and could speed up CPU computations.
…
12/12 [==============================] - 8s - loss: 0.0078 - acc: 0.9974 - val_loss: 0.0768 - val_acc: 0.8286
Epoch 28/30
12/12 [==============================] - 8s - loss: 0.0069 - acc: 0.9974 - val_loss: 0.0758 - val_acc: 0.8000
Epoch 29/30
12/12 [==============================] - 8s - loss: 0.0075 - acc: 1.0000 - val_loss: 0.0739 - val_acc: 0.8143
Epoch 30/30
12/12 [==============================] - 8s - loss: 0.0070 - acc: 1.0000 - val_loss: 0.0768 - val_acc: 0.8143
Model saved successfully
 
13,

Layer (type)                 Output Shape              Param #   
=================================================================
input_1 (InputLayer)         (None, 600, 800, 3)       0         
_________________________________________________________________
lambda_1 (Lambda)            (None, 96, 96, 3)         0         
_________________________________________________________________
lambda_2 (Lambda)            (None, 96, 96, 3)         0         
_________________________________________________________________
conv2d_1 (Conv2D)            (None, 94, 94, 8)         224       
_________________________________________________________________
conv2d_2 (Conv2D)            (None, 92, 92, 16)        1168      
_________________________________________________________________
conv2d_3 (Conv2D)            (None, 90, 90, 32)        4640      
_________________________________________________________________
flatten_1 (Flatten)          (None, 259200)            0         
_________________________________________________________________
dense_1 (Dense)              (None, 4)                 1036804   
=================================================================
Total params: 1,042,836
Trainable params: 1,042,836
Non-trainable params: 0
_________________________________________________________________
Training started
Epoch 1/30
2020-01-31 00:21:51.239171: W tensorflow/core/platform/cpu_feature_guard.cc:45] The TensorFlow library wasn't compiled to use SSE4.1 instructions, but these are available on your machine and could speed up CPU computations.
…
12/12 [==============================] - 13s - loss: 0.0061 - acc: 1.0000 - val_loss: 0.1296 - val_acc: 0.6286
Epoch 28/30
12/12 [==============================] - 13s - loss: 0.0045 - acc: 1.0000 - val_loss: 0.1294 - val_acc: 0.6429
Epoch 29/30
12/12 [==============================] - 14s - loss: 0.0040 - acc: 1.0000 - val_loss: 0.1146 - val_acc: 0.6979
Epoch 30/30
12/12 [==============================] - 13s - loss: 0.0027 - acc: 1.0000 - val_loss: 0.1223 - val_acc: 0.6571
Model saved successfully


14,

Layer (type)                 Output Shape              Param #   
=================================================================
input_1 (InputLayer)         (None, 600, 800, 3)       0         
_________________________________________________________________
lambda_1 (Lambda)            (None, 96, 96, 3)         0         
_________________________________________________________________
lambda_2 (Lambda)            (None, 96, 96, 3)         0         
_________________________________________________________________
conv2d_1 (Conv2D)            (None, 94, 94, 4)         112       
_________________________________________________________________
conv2d_2 (Conv2D)            (None, 92, 92, 8)         296       
_________________________________________________________________
conv2d_3 (Conv2D)            (None, 90, 90, 16)        1168      
_________________________________________________________________
flatten_1 (Flatten)          (None, 129600)            0         
_________________________________________________________________
dense_1 (Dense)              (None, 4)                 518404    
=================================================================
Total params: 519,980
Trainable params: 519,980
Non-trainable params: 0
_________________________________________________________________
Training started
Epoch 1/15
2020-02-02 17:23:32.476450: W tensorflow/core/platform/cpu_feature_guard.cc:45] The TensorFlow library wasn't compiled to use SSE4.1 instructions, but these are available on your machine and could speed up CPU computations.
…
12/12 [==============================] - 8s - loss: 0.0147 - acc: 0.9808 - val_loss: 0.0851 - val_acc: 0.7571
Epoch 13/15
12/12 [==============================] - 8s - loss: 0.0121 - acc: 0.9886 - val_loss: 0.0855 - val_acc: 0.7571
Epoch 14/15
12/12 [==============================] - 8s - loss: 0.0101 - acc: 0.9922 - val_loss: 0.0828 - val_acc: 0.8000
Epoch 15/15
12/12 [==============================] - 10s - loss: 0.0089 - acc: 0.9912 - val_loss: 0.0813 - val_acc: 0.7857
Model saved successfully

15,

Layer (type)                 Output Shape              Param #   
=================================================================
input_1 (InputLayer)         (None, 600, 800, 3)       0         
_________________________________________________________________
lambda_1 (Lambda)            (None, 400, 300, 3)       0         
_________________________________________________________________
lambda_2 (Lambda)            (None, 400, 300, 3)       0         
_________________________________________________________________
conv2d_1 (Conv2D)            (None, 398, 298, 4)       112       
_________________________________________________________________
conv2d_2 (Conv2D)            (None, 396, 296, 8)       296       
_________________________________________________________________
conv2d_3 (Conv2D)            (None, 394, 294, 16)      1168      
_________________________________________________________________
flatten_1 (Flatten)          (None, 1853376)           0         
_________________________________________________________________
dense_1 (Dense)              (None, 4)                 7413508   
=================================================================
Total params: 7,415,084
Trainable params: 7,415,084
Non-trainable params: 0
_________________________________________________________________
Training started
Epoch 1/15
2020-02-02 18:26:06.740534: W tensorflow/core/platform/cpu_feature_guard.cc:45] The TensorFlow library wasn't compiled to use SSE4.1 instructions, but these are available on your machine and could speed up CPU computations.
…
12/12 [==============================] - 71s - loss: 0.1201 - acc: 0.9564 - val_loss: 0.1699 - val_acc: 0.6979
Epoch 14/15
12/12 [==============================] - 72s - loss: 0.1069 - acc: 0.9661 - val_loss: 0.1534 - val_acc: 0.6857
Epoch 15/15
12/12 [==============================] - 71s - loss: 0.0902 - acc: 0.9746 - val_loss: 0.1576 - val_acc: 0.6714
Model saved successfully

16,

_________________________________________________________________
Layer (type)                 Output Shape              Param #   
=================================================================
input_1 (InputLayer)         (None, 600, 800, 3)       0         
_________________________________________________________________
lambda_1 (Lambda)            (None, 200, 150, 3)       0         
_________________________________________________________________
lambda_2 (Lambda)            (None, 200, 150, 3)       0         
_________________________________________________________________
conv2d_1 (Conv2D)            (None, 198, 148, 4)       112       
_________________________________________________________________
conv2d_2 (Conv2D)            (None, 196, 146, 8)       296       
_________________________________________________________________
conv2d_3 (Conv2D)            (None, 194, 144, 16)      1168      
_________________________________________________________________
flatten_1 (Flatten)          (None, 446976)            0         
_________________________________________________________________
dense_1 (Dense)              (None, 4)                 1787908   
=================================================================
Total params: 1,789,484
Trainable params: 1,789,484
Non-trainable params: 0
_________________________________________________________________
Training started
Epoch 1/15
2020-02-02 18:45:58.669127: W tensorflow/core/platform/cpu_feature_guard.cc:45] The TensorFlow library wasn't compiled to use SSE4.1 instructions, but these are available on your machine and could speed up CPU computations.
…
12/12 [==============================] - 20s - loss: 0.0808 - acc: 0.9478 - val_loss: 0.1326 - val_acc: 0.7714
Epoch 14/15
12/12 [==============================] - 22s - loss: 0.0724 - acc: 0.9505 - val_loss: 0.1305 - val_acc: 0.7286
Epoch 15/15
12/12 [==============================] - 21s - loss: 0.0623 - acc: 0.9713 - val_loss: 0.1237 - val_acc: 0.7714
Model saved successfully

17,


_________________________________________________________________
Layer (type)                 Output Shape              Param #   
=================================================================
input_1 (InputLayer)         (None, 600, 800, 3)       0         
_________________________________________________________________
lambda_1 (Lambda)            (None, 200, 150, 3)       0         
_________________________________________________________________
lambda_2 (Lambda)            (None, 200, 150, 3)       0         
_________________________________________________________________
conv2d_1 (Conv2D)            (None, 198, 148, 4)       112       
_________________________________________________________________
conv2d_2 (Conv2D)            (None, 196, 146, 8)       296       
_________________________________________________________________
conv2d_3 (Conv2D)            (None, 194, 144, 16)      1168      
_________________________________________________________________
max_pooling2d_1 (MaxPooling2 (None, 97, 72, 16)        0         
_________________________________________________________________
flatten_1 (Flatten)          (None, 111744)            0         
_________________________________________________________________
dense_1 (Dense)              (None, 4)                 446980    
=================================================================
Total params: 448,556
Trainable params: 448,556
Non-trainable params: 0
_________________________________________________________________
Training started
Epoch 1/15
2020-02-02 18:56:15.871964: W tensorflow/core/platform/cpu_feature_guard.cc:45] The TensorFlow library wasn't compiled to use SSE4.1 instructions, but these are available on your machine and could speed up CPU computations.
…
12/12 [==============================] - 20s - loss: 0.0509 - acc: 0.9530 - val_loss: 0.0944 - val_acc: 0.8143
Epoch 13/15
12/12 [==============================] - 19s - loss: 0.0456 - acc: 0.9530 - val_loss: 0.0965 - val_acc: 0.8000
Epoch 14/15
12/12 [==============================] - 21s - loss: 0.0381 - acc: 0.9583 - val_loss: 0.0849 - val_acc: 0.8229
Epoch 15/15
12/12 [==============================] - 19s - loss: 0.0324 - acc: 0.9687 - val_loss: 0.0948 - val_acc: 0.7857
Model saved successfully


18,

Layer (type)                 Output Shape              Param #   
=================================================================
input_1 (InputLayer)         (None, 600, 800, 3)       0         
_________________________________________________________________
lambda_1 (Lambda)            (None, 100, 75, 3)        0         
_________________________________________________________________
lambda_2 (Lambda)            (None, 100, 75, 3)        0         
_________________________________________________________________
conv2d_1 (Conv2D)            (None, 98, 73, 4)         112       
_________________________________________________________________
conv2d_2 (Conv2D)            (None, 96, 71, 8)         296       
_________________________________________________________________
conv2d_3 (Conv2D)            (None, 94, 69, 16)        1168      
_________________________________________________________________
max_pooling2d_1 (MaxPooling2 (None, 47, 34, 16)        0         
_________________________________________________________________
flatten_1 (Flatten)          (None, 25568)             0         
_________________________________________________________________
dense_1 (Dense)              (None, 4)                 102276    
=================================================================
Total params: 103,852
Trainable params: 103,852
Non-trainable params: 0
_________________________________________________________________
Training started
Epoch 1/15
2020-02-02 19:05:43.879295: W tensorflow/core/platform/cpu_feature_guard.cc:45] The TensorFlow library wasn't compiled to use SSE4.1 instructions, but these are available on your machine and could speed up CPU computations.
…
12/12 [==============================] - 7s - loss: 0.0432 - acc: 0.9817 - val_loss: 0.1180 - val_acc: 0.7714
Epoch 13/15
12/12 [==============================] - 7s - loss: 0.0439 - acc: 0.9765 - val_loss: 0.0938 - val_acc: 0.7857
Epoch 14/15
12/12 [==============================] - 7s - loss: 0.0249 - acc: 0.9896 - val_loss: 0.0900 - val_acc: 0.7714
Epoch 15/15
12/12 [==============================] - 7s - loss: 0.0137 - acc: 1.0000 - val_loss: 0.0835 - val_acc: 0.7714
Model saved successfully


19,

Layer (type)                 Output Shape              Param #   
=================================================================
input_1 (InputLayer)         (None, 600, 800, 3)       0         
_________________________________________________________________
lambda_1 (Lambda)            (None, 100, 75, 3)        0         
_________________________________________________________________
lambda_2 (Lambda)            (None, 100, 75, 3)        0         
_________________________________________________________________
conv2d_1 (Conv2D)            (None, 98, 73, 4)         112       
_________________________________________________________________
max_pooling2d_1 (MaxPooling2 (None, 49, 36, 4)         0         
_________________________________________________________________
conv2d_2 (Conv2D)            (None, 47, 34, 8)         296       
_________________________________________________________________
conv2d_3 (Conv2D)            (None, 45, 32, 16)        1168      
_________________________________________________________________
max_pooling2d_2 (MaxPooling2 (None, 22, 16, 16)        0         
_________________________________________________________________
flatten_1 (Flatten)          (None, 5632)              0         
_________________________________________________________________
dense_1 (Dense)              (None, 4)                 22532     
=================================================================
Total params: 24,108
Trainable params: 24,108
Non-trainable params: 0
_________________________________________________________________
Training started
Epoch 1/15
2020-02-02 19:09:33.182696: W tensorflow/core/platform/cpu_feature_guard.cc:45] The TensorFlow library wasn't compiled to use SSE4.1 instructions, but these are available on your machine and could speed up CPU computations.
…
12/12 [==============================] - 5s - loss: 0.0428 - acc: 0.9530 - val_loss: 0.1077 - val_acc: 0.7000
Epoch 13/15
12/12 [==============================] - 5s - loss: 0.0436 - acc: 0.9635 - val_loss: 0.1187 - val_acc: 0.7286
Epoch 14/15
12/12 [==============================] - 5s - loss: 0.0389 - acc: 0.9661 - val_loss: 0.1047 - val_acc: 0.7571
Epoch 15/15
12/12 [==============================] - 5s - loss: 0.0300 - acc: 0.9817 - val_loss: 0.1059 - val_acc: 0.7429
Model saved successfully


20,

Layer (type)                 Output Shape              Param #   
=================================================================
input_1 (InputLayer)         (None, 600, 800, 3)       0         
_________________________________________________________________
lambda_1 (Lambda)            (None, 100, 75, 3)        0         
_________________________________________________________________
lambda_2 (Lambda)            (None, 100, 75, 3)        0         
_________________________________________________________________
conv2d_1 (Conv2D)            (None, 98, 73, 8)         224       
_________________________________________________________________
conv2d_2 (Conv2D)            (None, 96, 71, 16)        1168      
_________________________________________________________________
max_pooling2d_1 (MaxPooling2 (None, 48, 35, 16)        0         
_________________________________________________________________
flatten_1 (Flatten)          (None, 26880)             0         
_________________________________________________________________
dense_1 (Dense)              (None, 4)                 107524    
=================================================================
Total params: 108,916
Trainable params: 108,916
Non-trainable params: 0
_________________________________________________________________
Training started
Epoch 1/15
2020-02-02 19:13:21.289563: W tensorflow/core/platform/cpu_feature_guard.cc:45] The TensorFlow library wasn't compiled to use SSE4.1 instructions, but these are available on your machine and could speed up CPU computations.
…
12/12 [==============================] - 6s - loss: 0.0211 - acc: 0.9817 - val_loss: 0.0754 - val_acc: 0.8000
Epoch 13/15
12/12 [==============================] - 7s - loss: 0.0205 - acc: 0.9765 - val_loss: 0.0891 - val_acc: 0.7714
Epoch 14/15
12/12 [==============================] - 7s - loss: 0.0219 - acc: 0.9844 - val_loss: 0.0870 - val_acc: 0.8000
Epoch 15/15
12/12 [==============================] - 7s - loss: 0.0181 - acc: 0.9870 - val_loss: 0.0799 - val_acc: 0.8429
Model saved successfully

21,

Layer (type)                 Output Shape              Param #   
=================================================================
input_1 (InputLayer)         (None, 600, 800, 3)       0         
_________________________________________________________________
lambda_1 (Lambda)            (None, 100, 75, 3)        0         
_________________________________________________________________
lambda_2 (Lambda)            (None, 100, 75, 3)        0         
_________________________________________________________________
conv2d_1 (Conv2D)            (None, 98, 73, 8)         224       
_________________________________________________________________
conv2d_2 (Conv2D)            (None, 96, 71, 16)        1168      
_________________________________________________________________
max_pooling2d_1 (MaxPooling2 (None, 48, 35, 16)        0         
_________________________________________________________________
conv2d_3 (Conv2D)            (None, 46, 33, 32)        4640      
_________________________________________________________________
flatten_1 (Flatten)          (None, 48576)             0         
_________________________________________________________________
dense_1 (Dense)              (None, 4)                 194308    
=================================================================
Total params: 200,340
Trainable params: 200,340
Non-trainable params: 0
_________________________________________________________________
Training started
Epoch 1/15
2020-02-02 19:18:08.780825: W tensorflow/core/platform/cpu_feature_guard.cc:45] The TensorFlow library wasn't compiled to use SSE4.1 instructions, but these are available on your machine and could speed up CPU computations.
…
12/12 [==============================] - 7s - loss: 0.0223 - acc: 0.9791 - val_loss: 0.0841 - val_acc: 0.8143
Epoch 13/15
12/12 [==============================] - 7s - loss: 0.0266 - acc: 0.9782 - val_loss: 0.0650 - val_acc: 0.8857
Epoch 14/15
12/12 [==============================] - 7s - loss: 0.0253 - acc: 0.9870 - val_loss: 0.0636 - val_acc: 0.8857
Epoch 15/15
12/12 [==============================] - 7s - loss: 0.0214 - acc: 0.9896 - val_loss: 0.0688 - val_acc: 0.8714
Model saved successfully


22,

Layer (type)                 Output Shape              Param #   
=================================================================
input_1 (InputLayer)         (None, 600, 800, 3)       0         
_________________________________________________________________
lambda_1 (Lambda)            (None, 100, 75, 3)        0         
_________________________________________________________________
lambda_2 (Lambda)            (None, 100, 75, 3)        0         
_________________________________________________________________
conv2d_1 (Conv2D)            (None, 98, 73, 8)         224       
_________________________________________________________________
conv2d_2 (Conv2D)            (None, 96, 71, 16)        1168      
_________________________________________________________________
max_pooling2d_1 (MaxPooling2 (None, 48, 35, 16)        0         
_________________________________________________________________
conv2d_3 (Conv2D)            (None, 46, 33, 32)        4640      
_________________________________________________________________
max_pooling2d_2 (MaxPooling2 (None, 23, 16, 32)        0         
_________________________________________________________________
flatten_1 (Flatten)          (None, 11776)             0         
_________________________________________________________________
dense_1 (Dense)              (None, 4)                 47108     
=================================================================
Total params: 53,140
Trainable params: 53,140
Non-trainable params: 0
_________________________________________________________________
Training started
Epoch 1/15
2020-02-02 19:23:25.799923: W tensorflow/core/platform/cpu_feature_guard.cc:45] The TensorFlow library wasn't compiled to use SSE4.1 instructions, but these are available on your machine and could speed up CPU computations.
…
12/12 [==============================] - 7s - loss: 0.0446 - acc: 0.9556 - val_loss: 0.0926 - val_acc: 0.8000
Epoch 13/15
12/12 [==============================] - 8s - loss: 0.0537 - acc: 0.9469 - val_loss: 0.0796 - val_acc: 0.8286
Epoch 14/15
12/12 [==============================] - 8s - loss: 0.0382 - acc: 0.9661 - val_loss: 0.0794 - val_acc: 0.7857
Epoch 15/15
12/12 [==============================] - 8s - loss: 0.0315 - acc: 0.9739 - val_loss: 0.0746 - val_acc: 0.8000
Model saved successfully

23,

Layer (type)                 Output Shape              Param #   
=================================================================
input_1 (InputLayer)         (None, 600, 800, 3)       0         
_________________________________________________________________
lambda_1 (Lambda)            (None, 100, 75, 3)        0         
_________________________________________________________________
lambda_2 (Lambda)            (None, 100, 75, 3)        0         
_________________________________________________________________
conv2d_1 (Conv2D)            (None, 98, 73, 8)         224       
_________________________________________________________________
conv2d_2 (Conv2D)            (None, 96, 71, 16)        1168      
_________________________________________________________________
max_pooling2d_1 (MaxPooling2 (None, 48, 35, 16)        0         
_________________________________________________________________
conv2d_3 (Conv2D)            (None, 46, 33, 32)        4640      
_________________________________________________________________
max_pooling2d_2 (MaxPooling2 (None, 23, 16, 32)        0         
_________________________________________________________________
conv2d_4 (Conv2D)            (None, 21, 14, 64)        18496     
_________________________________________________________________
flatten_1 (Flatten)          (None, 18816)             0         
_________________________________________________________________
dense_1 (Dense)              (None, 4)                 75268     
=================================================================
Total params: 99,796
Trainable params: 99,796
Non-trainable params: 0
_________________________________________________________________
Training started
Epoch 1/15
2020-02-02 19:26:47.377040: W tensorflow/core/platform/cpu_feature_guard.cc:45] The TensorFlow library wasn't compiled to use SSE4.1 instructions, but these are available on your machine and could speed up CPU computations.
…
12/12 [==============================] - 8s - loss: 0.0277 - acc: 0.9739 - val_loss: 0.0726 - val_acc: 0.8571
Epoch 13/15
12/12 [==============================] - 8s - loss: 0.0253 - acc: 0.9713 - val_loss: 0.0856 - val_acc: 0.8429
Epoch 14/15
12/12 [==============================] - 8s - loss: 0.0253 - acc: 0.9766 - val_loss: 0.0833 - val_acc: 0.8286
Epoch 15/15
12/12 [==============================] - 8s - loss: 0.0195 - acc: 0.9817 - val_loss: 0.0752 - val_acc: 0.8286
Model saved successfully

23,

Layer (type)                 Output Shape              Param #   
=================================================================
input_1 (InputLayer)         (None, 600, 800, 3)       0         
_________________________________________________________________
lambda_1 (Lambda)            (None, 100, 75, 3)        0         
_________________________________________________________________
lambda_2 (Lambda)            (None, 100, 75, 3)        0         
_________________________________________________________________
conv2d_1 (Conv2D)            (None, 98, 73, 8)         224       
_________________________________________________________________
max_pooling2d_1 (MaxPooling2 (None, 49, 36, 8)         0         
_________________________________________________________________
conv2d_2 (Conv2D)            (None, 47, 34, 16)        1168      
_________________________________________________________________
max_pooling2d_2 (MaxPooling2 (None, 23, 17, 16)        0         
_________________________________________________________________
conv2d_3 (Conv2D)            (None, 21, 15, 32)        4640      
_________________________________________________________________
max_pooling2d_3 (MaxPooling2 (None, 10, 7, 32)         0         
_________________________________________________________________
flatten_1 (Flatten)          (None, 2240)              0         
_________________________________________________________________
dense_1 (Dense)              (None, 4)                 8964      
=================================================================
Total params: 14,996
Trainable params: 14,996
Non-trainable params: 0
_________________________________________________________________
Training started
Epoch 1/15
2020-02-02 19:41:44.924283: W tensorflow/core/platform/cpu_feature_guard.cc:45] The TensorFlow library wasn't compiled to use SSE4.1 instructions, but these are available on your machine and could speed up CPU computations.
…
12/12 [==============================] - 5s - loss: 0.0535 - acc: 0.9172 - val_loss: 0.0961 - val_acc: 0.7714
Epoch 13/15
12/12 [==============================] - 5s - loss: 0.0469 - acc: 0.9225 - val_loss: 0.0936 - val_acc: 0.7714
Epoch 14/15
12/12 [==============================] - 6s - loss: 0.0419 - acc: 0.9427 - val_loss: 0.0921 - val_acc: 0.7429
Epoch 15/15
12/12 [==============================] - 5s - loss: 0.0375 - acc: 0.9469 - val_loss: 0.0892 - val_acc: 0.7429
Model saved successfully


24,

Layer (type)                 Output Shape              Param #   
=================================================================
input_1 (InputLayer)         (None, 600, 800, 3)       0         
_________________________________________________________________
lambda_1 (Lambda)            (None, 100, 75, 3)        0         
_________________________________________________________________
lambda_2 (Lambda)            (None, 100, 75, 3)        0         
_________________________________________________________________
conv2d_1 (Conv2D)            (None, 98, 73, 8)         224       
_________________________________________________________________
max_pooling2d_1 (MaxPooling2 (None, 49, 36, 8)         0         
_________________________________________________________________
conv2d_2 (Conv2D)            (None, 47, 34, 16)        1168      
_________________________________________________________________
max_pooling2d_2 (MaxPooling2 (None, 23, 17, 16)        0         
_________________________________________________________________
conv2d_3 (Conv2D)            (None, 21, 15, 32)        4640      
_________________________________________________________________
flatten_1 (Flatten)          (None, 10080)             0         
_________________________________________________________________
dense_1 (Dense)              (None, 4)                 40324     
=================================================================
Total params: 46,356
Trainable params: 46,356
Non-trainable params: 0
_________________________________________________________________
Training started
Epoch 1/15
2020-02-02 19:47:52.648320: W tensorflow/core/platform/cpu_feature_guard.cc:45] The TensorFlow library wasn't compiled to use SSE4.1 instructions, but these are available on your machine and could speed up CPU computations.
…
12/12 [==============================] - 5s - loss: 0.0154 - acc: 0.9922 - val_loss: 0.0747 - val_acc: 0.8571
Epoch 14/15
12/12 [==============================] - 5s - loss: 0.0141 - acc: 0.9896 - val_loss: 0.0761 - val_acc: 0.8429
Epoch 15/15
12/12 [==============================] - 5s - loss: 0.0153 - acc: 0.9896 - val_loss: 0.0747 - val_acc: 0.8857
Model saved successfully

25,

_________________________________________________________________
Layer (type)                 Output Shape              Param #   
=================================================================
input_1 (InputLayer)         (None, 600, 800, 3)       0         
_________________________________________________________________
lambda_1 (Lambda)            (None, 100, 75, 3)        0         
_________________________________________________________________
lambda_2 (Lambda)            (None, 100, 75, 3)        0         
_________________________________________________________________
conv2d_1 (Conv2D)            (None, 98, 73, 8)         224       
_________________________________________________________________
max_pooling2d_1 (MaxPooling2 (None, 49, 36, 8)         0         
_________________________________________________________________
conv2d_2 (Conv2D)            (None, 47, 34, 16)        1168      
_________________________________________________________________
max_pooling2d_2 (MaxPooling2 (None, 23, 17, 16)        0         
_________________________________________________________________
dropout_1 (Dropout)          (None, 23, 17, 16)        0         
_________________________________________________________________
conv2d_3 (Conv2D)            (None, 21, 15, 32)        4640      
_________________________________________________________________
flatten_1 (Flatten)          (None, 10080)             0         
_________________________________________________________________
dense_1 (Dense)              (None, 4)                 40324     
=================================================================
Total params: 46,356
Trainable params: 46,356
Non-trainable params: 0
_________________________________________________________________
Training started
Epoch 1/15
2020-02-02 19:50:22.411231: W tensorflow/core/platform/cpu_feature_guard.cc:45] The TensorFlow library wasn't compiled to use SSE4.1 instructions, but these are available on your machine and could speed up CPU computations.
…
12/12 [==============================] - 5s - loss: 0.0230 - acc: 0.9791 - val_loss: 0.1095 - val_acc: 0.7143
Epoch 23/25
12/12 [==============================] - 5s - loss: 0.0211 - acc: 0.9896 - val_loss: 0.1069 - val_acc: 0.7429
Epoch 24/25
12/12 [==============================] - 5s - loss: 0.0233 - acc: 0.9948 - val_loss: 0.1045 - val_acc: 0.7714
Epoch 25/25
12/12 [==============================] - 5s - loss: 0.0249 - acc: 0.9948 - val_loss: 0.1063 - val_acc: 0.8143
Model saved successfully

27,

Layer (type)                 Output Shape              Param #   
=================================================================
input_1 (InputLayer)         (None, 600, 800, 3)       0         
_________________________________________________________________
lambda_1 (Lambda)            (None, 100, 75, 3)        0         
_________________________________________________________________
lambda_2 (Lambda)            (None, 100, 75, 3)        0         
_________________________________________________________________
conv2d_1 (Conv2D)            (None, 98, 73, 8)         224       
_________________________________________________________________
conv2d_2 (Conv2D)            (None, 96, 71, 16)        1168      
_________________________________________________________________
conv2d_3 (Conv2D)            (None, 94, 69, 32)        4640      
_________________________________________________________________
flatten_1 (Flatten)          (None, 207552)            0         
_________________________________________________________________
dense_1 (Dense)              (None, 4)                 830212    
=================================================================
Total params: 836,244
Trainable params: 836,244
Non-trainable params: 0
_________________________________________________________________
Training started
Epoch 1/15
2020-02-02 20:05:54.451088: W tensorflow/core/platform/cpu_feature_guard.cc:45] The TensorFlow library wasn't compiled to use SSE4.1 instructions, but these are available on your machine and could speed up CPU computations.
…
