_________________________________________________________________
Layer (type)                 Output Shape              Param #   
=================================================================
input_1 (InputLayer)         (None, 600, 800, 3)       0         
_________________________________________________________________
lambda_1 (Lambda)            (None, 96, 96, 3)         0         
_________________________________________________________________
lambda_2 (Lambda)            (None, 96, 96, 3)         0         
_________________________________________________________________
conv2d_1 (Conv2D)            (None, 94, 94, 8)         224       
_________________________________________________________________
max_pooling2d_1 (MaxPooling2 (None, 47, 47, 8)         0         
_________________________________________________________________
dropout_1 (Dropout)          (None, 47, 47, 8)         0         
_________________________________________________________________
conv2d_2 (Conv2D)            (None, 45, 45, 16)        1168      
_________________________________________________________________
max_pooling2d_2 (MaxPooling2 (None, 22, 22, 16)        0         
_________________________________________________________________
dropout_2 (Dropout)          (None, 22, 22, 16)        0         
_________________________________________________________________
conv2d_3 (Conv2D)            (None, 20, 20, 32)        4640      
_________________________________________________________________
conv2d_4 (Conv2D)            (None, 18, 18, 64)        18496     
_________________________________________________________________
dropout_3 (Dropout)          (None, 18, 18, 64)        0         
_________________________________________________________________
flatten_1 (Flatten)          (None, 20736)             0         
_________________________________________________________________
dense_1 (Dense)              (None, 4)                 82948     
=================================================================
Total params: 107,476
Trainable params: 107,476
Non-trainable params: 0
_________________________________________________________________
12/12 [==============================] - 6s - loss: 0.0418 - acc: 0.9583 - val_loss: 0.1005 - val_acc: 0.7857

