_________________________________________________________________
Layer (type)                 Output Shape              Param #   
=================================================================
input_1 (InputLayer)         (None, 600, 800, 3)       0         
_________________________________________________________________
lambda_1 (Lambda)            (None, 224, 224, 3)       0         
_________________________________________________________________
lambda_2 (Lambda)            (None, 224, 224, 3)       0         
_________________________________________________________________
conv2d_1 (Conv2D)            (None, 214, 214, 16)      5824      
_________________________________________________________________
max_pooling2d_1 (MaxPooling2 (None, 107, 107, 16)      0         
_________________________________________________________________
dropout_1 (Dropout)          (None, 107, 107, 16)      0         
_________________________________________________________________
conv2d_2 (Conv2D)            (None, 105, 105, 32)      4640      
_________________________________________________________________
max_pooling2d_2 (MaxPooling2 (None, 52, 52, 32)        0         
_________________________________________________________________
conv2d_3 (Conv2D)            (None, 50, 50, 64)        18496     
_________________________________________________________________
max_pooling2d_3 (MaxPooling2 (None, 25, 25, 64)        0         
_________________________________________________________________
dropout_2 (Dropout)          (None, 25, 25, 64)        0         
_________________________________________________________________
dense_1 (Dense)              (None, 25, 25, 128)       8320      
_________________________________________________________________
dropout_3 (Dropout)          (None, 25, 25, 128)       0         
_________________________________________________________________
flatten_1 (Flatten)          (None, 80000)             0         
_________________________________________________________________
dense_2 (Dense)              (None, 4)                 320004    
=================================================================
Total params: 357,284
Trainable params: 357,284
Non-trainable params: 0
_________________________________________________________________
