_________________________________________________________________
Layer (type)                 Output Shape              Param #   
=================================================================
input_1 (InputLayer)         (None, 600, 800, 3)       0         
_________________________________________________________________
lambda_1 (Lambda)            (None, 224, 224, 3)       0         
_________________________________________________________________
lambda_2 (Lambda)            (None, 224, 224, 3)       0         
_________________________________________________________________
conv2d_1 (Conv2D)            (None, 214, 214, 6)       2184      
_________________________________________________________________
max_pooling2d_1 (MaxPooling2 (None, 107, 107, 6)       0         
_________________________________________________________________
dropout_1 (Dropout)          (None, 107, 107, 6)       0         
_________________________________________________________________
conv2d_2 (Conv2D)            (None, 105, 105, 8)       440       
_________________________________________________________________
max_pooling2d_2 (MaxPooling2 (None, 52, 52, 8)         0         
_________________________________________________________________
dropout_2 (Dropout)          (None, 52, 52, 8)         0         
_________________________________________________________________
conv2d_3 (Conv2D)            (None, 50, 50, 32)        2336      
_________________________________________________________________
max_pooling2d_3 (MaxPooling2 (None, 25, 25, 32)        0         
_________________________________________________________________
conv2d_4 (Conv2D)            (None, 23, 23, 64)        18496     
_________________________________________________________________
max_pooling2d_4 (MaxPooling2 (None, 11, 11, 64)        0         
_________________________________________________________________
dropout_3 (Dropout)          (None, 11, 11, 64)        0         
_________________________________________________________________
dense_1 (Dense)              (None, 11, 11, 128)       8320      
_________________________________________________________________
dropout_4 (Dropout)          (None, 11, 11, 128)       0         
_________________________________________________________________
flatten_1 (Flatten)          (None, 15488)             0         
_________________________________________________________________
dense_2 (Dense)              (None, 4)                 61956     
=================================================================
Total params: 93,732
Trainable params: 93,732
Non-trainable params: 0
12/12 [==============================] - 90s - loss: 0.0550 - acc: 0.9322 - val_loss: 0.0919 - val_acc: 0.8286


_________________________________________________________________
